model.pt (torch_old, 6534 bytes, 33 tensors)

inputlayer.weight f4 [5, 1]
000000 d6 9a d1 3e c6 de 59 bf 83 2d 0e bf 37 d4 7e 3f
       0.40938443 -0.8510555 -0.55538195 0.99542564
000010 30 40 0a 3f
       0.5400419

inputlayer.bias f4 [5]
000000 e2 c0 36 bf f5 65 6b 3e ca f1 29 3f 58 65 2c 3f
       -0.71388066 0.22988112 0.66384566 0.6734214
000010 43 3b 89 3f
       1.072121

hiddenlayer1.weight f4 [5, 5]
000000 42 12 71 be 06 7a 10 3f 9b 8d a2 3d 1f d8 66 be
       -0.23542121 0.56436193 0.07937165 -0.22543381
000010 41 c1 7b bd 95 8f 8b be 11 c5 69 3e 0c 0c 09 3f
       -0.0614636 -0.27257982 0.22829081 0.5353401
000020 b7 ee b0 be b5 eb e9 be cc 11 44 3c 90 9c 6b 3e
       -0.34557125 -0.45687643 0.011967134 0.23008943
000030 c6 dd e9 3e a5 83 5f be 89 2c 36 bf d5 04 8d 3e
       0.45677012 -0.21827562 -0.71161705 0.2754275
000040 2a 20 be be 4f 0b 32 3e 10 a4 2a 3f 42 d7 7b 3f
       -0.37133914 0.17387126 0.6665659 0.9837533
000050 16 67 80 3e 04 5a 2d 3e ae 65 8a be c7 45 d8 3d
       0.25078648 0.1692887 -0.270307 0.10560184
000060 c4 a5 ea be
       -0.45829594

hiddenlayer1.bias f4 [5]
000000 38 07 3b be 00 ad 46 3e 56 9d e4 bd 13 ca fa 3e
       -0.18264472 0.19401932 -0.11162822 0.48982295
000010 f9 d1 46 3e
       0.19416036

hiddenlayer2.weight f4 [5, 5]
000000 8b 58 17 3f 8b 94 a4 3e 26 77 4f 3f c2 6f 92 be
       0.5911948 0.3214458 0.8104118 -0.2860089
000010 3e c4 81 3e 1a 98 17 be d3 f7 dc 3e 44 cc 42 3f
       0.25345033 -0.14804116 0.43157825 0.76092935
000020 0c f5 d9 be f4 17 1d 3e 80 1f d9 bd 0c 64 bc be
       -0.42569768 0.15341169 -0.10601711 -0.3679508
000030 38 e6 75 bd ca ac b1 be ce 1d dc 3e a6 4c cd 3e
       -0.060034007 -0.3470214 0.4299149 0.4009754
000040 58 41 71 3d 46 f0 32 bf 04 5f 52 3f f6 c1 c5 3d
       0.058900207 -0.6989788 0.8217623 0.09656136
000050 6a 8f 0b 3f a3 7f 53 3e af 5a bb 3e e2 7a 55 bf
       0.5451571 0.20654158 0.36592624 -0.8339063
000060 7f 99 ae be
       -0.34101483

hiddenlayer2.bias f4 [5]
000000 06 c9 d8 3d 0b 3d 2b 3e 40 86 1b bd 37 fc c3 3e
       0.10585217 0.16722505 -0.037969828 0.38278362
000010 ef 58 20 3e
       0.15658925

hiddenlayer3.weight f4 [5, 5]
000000 0a a9 bf bd 6d 62 06 3e 09 08 ba be 15 90 40 3d
       -0.093584135 0.13123484 -0.36334255 0.047012407
000010 98 2f 93 be 15 5e 8b be cf 0d 3e be 08 95 30 be
       -0.2874725 -0.27220216 -0.18559955 -0.17244351
000020 99 f2 77 3e 38 a7 41 be c5 8a 03 3f 48 42 80 3e
       0.24213637 -0.18911445 0.5138362 0.2505057
000030 6c 03 44 3e e2 79 08 3f aa c3 db be 89 d5 0f 3f
       0.1914193 0.5331098 -0.42922717 0.56185204
000040 b4 7b 3a 3f 00 eb bc be 10 ca a5 be 83 4b 64 3f
       0.72845006 -0.3689804 -0.32380724 0.8917772
000050 7f 25 ad 3e 67 aa 42 3e 60 9a 6c 3c 26 c1 0b bf
       0.3381767 0.19010316 0.014441103 -0.54591596
000060 75 f2 3a 3f
       0.7302621

hiddenlayer3.bias f4 [5]
000000 a5 50 18 bd f2 0e 69 be 5d ef 76 3e 5d 6f aa bd
       -0.037186284 -0.22759607 0.24114747 -0.08322022
000010 89 3f 7b 3e
       0.24535955

hiddenlayer4.weight f4 [5, 5]
000000 00 e5 61 3e 87 bd dc 3d 25 0b 0e 3f 89 db a4 3e
       0.22060013 0.10778337 0.55485755 0.32198742
000010 5a 83 ab be dc 87 c7 bb bc 58 98 3e 31 d4 ed 3c
       -0.3349865 -0.0060891937 0.297552 0.029031845
000020 1f 68 d1 3e 5f af 35 3f 78 57 76 be aa 28 19 3f
       0.4089975 0.7097072 -0.24056804 0.59827673
000030 4c e1 db be e3 8e 21 3f 8f 5e 14 3f 64 54 aa bd
       -0.42945325 0.6310865 0.57956785 -0.083168775
000040 2e 4c bf 3e a1 80 94 be 03 b4 c0 be 8e ba 95 3e
       0.37362808 -0.29004386 -0.37637338 0.29243892
000050 8e 39 3a be d7 49 0a bd 41 34 bb be 6c 73 b7 3e
       -0.18186018 -0.033761825 -0.36563304 0.35830247
000060 19 34 9e 3c
       0.019311951

hiddenlayer4.bias f4 [5]
000000 42 c6 2c 3f 15 c0 6b be fc 9a 2e be 66 28 8c be
       0.6749002 -0.23022492 -0.1705131 -0.27374572
000010 af 18 72 bd
       -0.05910557

hiddenlayer5.weight f4 [5, 5]
000000 04 fd 29 3e 0b e4 bd be bc 49 60 3e 7c 8d 97 be
       0.16600424 -0.37088045 0.21903127 -0.29600132
000010 ce ef c7 be 34 2d be be b8 f6 d3 be b0 ab cf be
       -0.39050144 -0.37143862 -0.4139917 -0.40560675
000020 8c 92 9b bd 40 89 c5 3e 16 bd fc 3e 64 1e 9b be
       -0.07596311 0.38581276 0.4936301 -0.30296624
000030 9a a7 9a be e0 4f 01 bd 9a 5c 97 be d1 91 2b 3d
       -0.30205995 -0.031570315 -0.29562837 0.04188711
000040 e4 59 5b 3f 91 e6 50 3f c8 c9 cc bd 1e b6 35 3e
       0.8568404 0.81601816 -0.09999424 0.17745253
000050 2c 57 e8 3e af 26 7f 3e 73 f8 78 bd f4 4b 35 3e
       0.45379007 0.249171 -0.060783815 0.17704755
000060 66 65 f6 be
       -0.48124236

hiddenlayer5.bias f4 [5]
000000 f0 b6 29 be 86 99 8f be 76 80 29 3f 41 15 96 3d
       -0.16573691 -0.28046817 0.6621164 0.073282726
000010 87 aa 5e be
       -0.21744739

hiddenlayer6.weight f4 [5, 5]
000000 07 ec 25 be 84 9d af bd ae fd 25 3f c1 b3 88 be
       -0.16203319 -0.085749656 0.6484021 -0.2669964
000010 fb 65 63 3e c1 ea a7 be 6f 06 af be 02 f2 1f 3f
       0.22206871 -0.3279629 -0.34184596 0.6247865
000020 18 cf 82 be 62 d1 39 3d 18 e3 15 bd 86 95 2e be
       -0.25548625 0.0453657 -0.036593527 -0.17049226
000030 b9 c0 bc be 27 8f 6e be c4 3b d9 be cf 11 f7 3e
       -0.36865786 -0.23296796 -0.4242841 0.48255774
000040 79 36 64 be ad fe 05 3e ba 56 92 be 26 96 4c 3e
       -0.22286405 0.13085432 -0.28581792 0.19979152
000050 96 18 d6 3e 54 c6 55 3e 53 0b a3 be c8 7f c7 3e
       0.41815633 0.20876437 -0.31844577 0.38964677
000060 3a 63 19 3f
       0.5991703

hiddenlayer6.bias f4 [5]
000000 e7 98 18 3f 4a f6 12 3f 40 f8 b5 bc c7 26 62 3d
       0.5960831 0.5740706 -0.022213101 0.055212762
000010 18 10 ad 3e
       0.3380134

hiddenlayer7.weight f4 [5, 5]
000000 70 f3 c7 be 8e ab ca be 74 7e bb 3e 4d df 06 bf
       -0.39052916 -0.3958401 0.36619914 -0.5268448
000010 00 67 c5 3e 90 53 dc 3e 4c 92 ec 3e ee c9 bb be
       0.38555145 0.43032503 0.46205366 -0.36677498
000020 e2 6f 66 3e 2a 46 45 bd e7 d9 5b bf 01 22 2d 3e
       0.22503617 -0.048162617 -0.8587937 0.16907503
000030 6c 01 07 be 59 87 db 3e 3f 17 0c 3f f9 a0 10 3f
       -0.13184136 0.428767 0.5472297 0.56495625
000040 35 29 4f 3f d0 02 90 bd be 31 c1 bd e1 87 5d bd
       0.8092225 -0.070317864 -0.09433316 -0.054084662
000050 75 d4 d4 be 00 1d 5c 3d 6e cb 21 be b4 4c c8 bd
       -0.41568342 0.053738594 -0.15800259 -0.09780255
000060 ab ea 7f be
       -0.24991862

hiddenlayer7.bias f4 [5]
000000 d3 68 25 3f 8f fc f9 3c 60 e4 db be 46 df 0d bc
       0.64613074 0.030515937 -0.42947674 -0.00865919
000010 96 24 8c be
       -0.27371663

hiddenlayer8.weight f4 [5, 5]
000000 36 b9 61 3d dc a5 ac 3d 32 27 99 3f a7 e2 81 3e
       0.05510827 0.08430073 1.1965086 0.25368235
000010 2c 09 7f be 78 42 eb 3e 44 be 3d 3e f7 ee fe 3d
       -0.24905843 0.4594915 0.18529612 0.12447923
000020 f9 dd e0 bd 70 34 0d bd 8f ec df be 7f 27 0e 3f
       -0.10979838 -0.034473836 -0.43735167 0.55529016
000030 e2 3d 89 be 85 c2 2d 3f 40 d0 1e 3e 62 0b 2d 3f
       -0.26805025 0.6787494 0.15509129 0.67595494
000040 fa 86 25 bf 03 5d 53 be 2e 4d 26 bf d4 96 3c be
       -0.6465908 -0.2064095 -0.64961517 -0.18416911
000050 4a a1 e0 3e d6 5f 57 be 28 9d 38 bf 91 5b 2d be
       0.43873054 -0.21032652 -0.721148 -0.16929461
000060 18 9c 92 bd
       -0.07158679

hiddenlayer8.bias f4 [5]
000000 12 3a 2a bf 5b 9b da 3e d9 46 ce 3e b5 0d e3 3e
       -0.6649486 0.42696652 0.40288427 0.44346395
000010 25 82 c1 3e
       0.37794605

hiddenlayer9.weight f4 [5, 5]
000000 95 a2 4b bf 51 79 b3 3e df 2f 25 3f d1 37 3d 3f
       -0.79544955 0.35053495 0.6452617 0.73913294
000010 6f 87 eb 3e 9c 90 d9 bf 75 14 35 be 9b 43 0a bf
       0.46001765 -1.6997256 -0.17683585 -0.5400941
000020 2b 9d 1b 3f 55 c9 29 3f ea 5c a4 be a7 a5 32 bf
       0.60786694 0.66322833 -0.32102138 -0.69784015
000030 75 5e c7 3e 88 ad 41 3e b6 1e cb be ec 77 98 bf
       0.38939252 0.18913853 -0.39671868 -1.1911597
000040 f5 84 c1 3d 63 41 9e bf c7 7a 1b 3f e6 83 8a 3e
       0.09449188 -1.2363704 0.6073422 0.27053756
000050 18 ed 8e bf ba 76 c2 bc 58 3b 43 be 5c 27 c8 3e
       -1.1166105 -0.023738254 -0.19065607 0.3909253
000060 fa 1b c6 3e
       0.3869322

hiddenlayer9.bias f4 [5]
000000 cc d0 33 be cd 08 da 3e 3b 66 f9 bc b0 b1 e0 be
       -0.17560118 0.4258484 -0.030444255 -0.43885565
000010 18 af 93 3d
       0.07211131

hiddenlayer10.weight f4 [5, 5]
000000 71 8d 8b bc 74 0e 4f 3e 76 cb a0 3f 89 89 68 bf
       -0.017035218 0.20220357 1.2562091 -0.9083486
000010 8d 66 d7 3c 9a e1 1b 3f bc c8 10 3f c7 53 9f bf
       0.026294017 0.60891116 0.56556296 -1.2447442
000020 82 dd 42 3f 49 ee 31 3f 27 5b 91 be 69 e1 b8 3e
       0.76119244 0.6950422 -0.28389856 0.36109474
000030 a4 8b df 3e 64 32 59 3e f1 91 23 3e c8 2d 62 be
       0.43661225 0.21210629 0.15973641 -0.22087777
000040 b9 17 91 be d1 5f 73 3f 00 08 ec 3b 66 91 bd be
       -0.2833841 0.9506808 0.007203102 -0.37024993
000050 df aa 79 be a2 ac 8f 3e 42 49 0a be e6 df 94 be
       -0.24381588 0.28061396 -0.13504508 -0.2907707
000060 40 a6 11 3d
       0.03555894

hiddenlayer10.bias f4 [5]
000000 c0 06 af 3e 9f e4 18 3e 05 be e5 be 3c c4 a1 3e
       0.34184837 0.14930962 -0.44871536 0.31595027
000010 0a d8 68 be
       -0.22738662

hiddenlayer11.weight f4 [5, 5]
000000 b7 2a 73 bf fd 74 08 3f e9 82 8c be 13 7b 67 bf
       -0.9498705 0.5330351 -0.27443627 -0.9042217
000010 3c fb 0c 3e e4 65 38 3f 99 ad 04 be de d7 97 be
       0.13767713 0.7203047 -0.12956847 -0.2965688
000020 79 35 27 3f 90 01 df be 26 d4 03 bf c8 ae 9e 3e
       0.6531597 -0.4355588 -0.5149559 0.30992723
000030 70 99 c2 3d b8 2e 8e bf 10 79 75 3e a4 14 63 be
       0.09501922 -1.1108007 0.23971963 -0.22175843
000040 cd 15 7c be c0 cd 58 3d a3 78 38 3f 68 ad b5 3e
       -0.24617691 0.052930593 0.7205908 0.3548386
000050 bb fc e7 be 8a d6 49 3f c7 ba c7 be 54 01 18 bf
       -0.45310006 0.78842986 -0.39009687 -0.59377027
000060 48 d3 ce 3d
       0.100988925

hiddenlayer11.bias f4 [5]
000000 cb a3 6c 3e 96 66 e1 3e 1d af c4 3c ab b0 15 3f
       0.23109357 0.4402358 0.024009282 0.584727
000010 70 c8 db 3c
       0.026828974

hiddenlayer12.weight f4 [5, 5]
000000 be 42 95 be 13 92 d5 be e2 be 7f be ff 65 8f 3e
       -0.29152483 -0.41713008 -0.2497516 0.28007504
000010 e4 a1 c7 be 87 19 61 3f df 9e 09 bf 3b 76 09 3f
       -0.389907 0.87929577 -0.53758043 0.5369603
000020 0e f4 1c 3e 73 4f 39 3f b3 d7 31 bf 69 7c 1a 3f
       0.15327474 0.72386855 -0.69469756 0.60346085
000030 62 0f bf bf d6 af 1f 3f 2e 4f 0f bf f8 16 42 3f
       -1.492657 0.6237768 -0.55980194 0.758163
000040 46 06 fc be 3d b9 a4 3e 4b 3d 96 bc 92 2b 92 3e
       -0.49223536 0.32172576 -0.018339774 0.28548867
000050 c5 ce 3c 3f 35 75 e2 3d 18 2b 30 3d 2e 22 78 3e
       0.73753005 0.11057512 0.043009847 0.24231789
000060 8a 7c 1a 3f
       0.6034628

hiddenlayer12.bias f4 [5]
000000 68 45 90 3c 3f 19 84 3e 85 a3 39 3e ec 2b cf 3e
       0.01761122 0.2580051 0.18128784 0.40463197
000010 f9 a9 43 3b
       0.002985595

hiddenlayer13.weight f4 [5, 5]
000000 4b 61 81 3e 74 86 ff 3e 4a 7b 84 be 36 04 74 3e
       0.2526954 0.49907267 -0.25875312 0.23829731
000010 de f2 c0 3d 17 dd 0c be 2d fe 40 3f 09 af 3b bf
       0.09421323 -0.13756214 0.7538784 -0.7331396
000020 0c c1 13 3f 5f 44 2f 3f 16 e3 9b be 1c 23 e5 bd
       0.5771644 0.684637 -0.3044669 -0.11188337
000030 ba 76 b0 be 25 0d 70 be a0 fa 43 3e 40 65 bf 3e
       -0.3446558 -0.23442514 0.19138575 0.37381935
000040 b7 41 da 3e 49 47 1d bf 77 7a 24 3f 3d 94 10 3e
       0.4262826 -0.614369 0.64249367 0.14119048
000050 7a ad 89 be 83 4e d4 be 00 3a 9a be cc d0 c6 3e
       -0.26890165 -0.4146615 -0.30122375 0.38831174
000060 00 f8 50 3e
       0.20407104

hiddenlayer13.bias f4 [5]
000000 07 23 01 3d 9c fd 0e 3e 09 73 93 be f2 9b b8 3d
       0.031527545 0.13963932 -0.28798702 0.09014119
000010 2e 69 d2 be
       -0.4109587

hiddenlayer14.weight f4 [5, 5]
000000 1f 2f f6 3e c5 f8 e9 3e b2 67 85 3e 5f 04 ad 3d
       0.48082826 0.4569761 0.26055676 0.08448099
000010 90 f9 d1 be 34 1e 3e 3e 13 2e 07 3f 72 36 e4 3e
       -0.41010714 0.18566209 0.5280468 0.44572788
000020 b7 d2 fd 3e e8 9f 67 3e f4 a7 10 3e 90 01 3b 3e
       0.49574825 0.22619593 0.14126569 0.18262315
000030 34 4f e3 be 83 c8 d5 be 48 e2 8b be b9 19 e5 be
       -0.44396365 -0.4175454 -0.27321076 -0.44746187
000040 14 f9 85 be 3c c5 3d be 7b b0 02 bf 90 22 5c 3e
       -0.26166594 -0.1853227 -0.5105054 0.2149756
000050 c8 d2 d7 be 70 dd 2e 3e 88 64 fe bd d4 0d f2 bd
       -0.42153 0.17076659 -0.124215186 -0.11819044
000060 a2 2a 8b be
       -0.27180964

hiddenlayer14.bias f4 [5]
000000 ae fd 4f 3d a4 35 6c 3e 46 7b 94 be 36 3a a9 3e
       0.050779037 0.23067337 -0.290003 0.33052224
000010 a0 d6 b6 bd
       -0.08927655

hiddenlayer15.weight f4 [5, 5]
000000 a7 d7 bc 3e a7 8d ae 3e 50 fe 8f 3d 8b 1a 8f 3e
       0.3688328 0.34092447 0.07030928 0.27949938
000010 28 8c f2 3d 90 e3 9d be d2 e3 da 3d fe 2d 7b be
       0.11843139 -0.3083768 0.106879845 -0.24529263
000020 93 62 78 3d 52 86 d2 3e f7 10 9b 3e da 5d e5 3e
       0.060640883 0.41118103 0.3028638 0.44798166
000030 29 4d 76 be f4 30 1e be 1c b1 89 be d1 58 f4 3e
       -0.24052872 -0.15448362 -0.26892936 0.47724012
000040 a1 da 2d 3f 66 cd 10 be 00 21 7e bd 84 c8 df be
       0.67911726 -0.14140853 -0.06204319 -0.4370767
000050 b9 d5 cf bc 24 e9 d0 bd a5 48 99 be db 2d 16 be
       -0.025370466 -0.10200718 -0.29938236 -0.1466593
000060 6c 7c 4d be
       -0.20066994

hiddenlayer15.bias f4 [5]
000000 16 33 d6 be a0 d6 82 3e 08 3e 84 3e 43 cc 75 3e
       -0.4183585 0.2555437 0.25828576 0.24003701
000010 5d 37 ed 3d
       0.11582825

outputlayer.weight f4 [1, 5]
000000 b0 a8 13 be cc 81 ff 3e 57 ea ea be ce 2a b7 be
       -0.14419818 0.49903715 -0.45881912 -0.35774845
000010 c0 97 e5 3b
       0.0070066154
